…
hyrecognition', decayinterval=40, decaylevel=2, epochs=400, evaluate=False, inpsize=224, learningratescheduler='decayschedular', logdir='../logs//sketchy_squeezenet', lr=None, manualSeed=123, maxlr=0.002, minlr=5e-05, model_def='squeezenet', momentum=0.9, nClasses=125, name='sketchy_squeezenet', nesterov=True, ngpus=1, optimType='adam', pretrained=False, pretrained_file='', printfreq=200, resume='', start_epoch=0, store='', tenCrop=True, tensorboard=True, testOnly=False, testbatchsize=4, verbose=False, weightDecay=0.0, weight_init=True, workers=4)
SqueezeNet (
  (features): Sequential (
    (0): Conv2d(1, 96, kernel_size=(7, 7), stride=(2, 2))
    (1): BatchNorm2d(96, eps=1e-05, momentum=0.1, affine=True)
    (2): ReLU (inplace)
    (3): MaxPool2d (size=(3, 3), stride=(2, 2), dilation=(1, 1))
    (4): Fire (
      (squeeze): Conv2d(96, 16, kernel_size=(1, 1), stride=(1, 1))
      (bn1): BatchNorm2d(16, eps=1e-05, momentum=0.1, affine=True)
      (squeeze_activation): ReLU (inplace)
      (expand1x1): Conv2d(16, 64, kernel_size=(1, 1), stride=(1, 1))
      (bn2): BatchNorm2d(64, eps=1e-05, momentum=0.1, affine=True)
      (expand1x1_activation): ReLU (inplace)
      (expand3x3): Conv2d(16, 64, kernel_size=(3, 3), stride=(1, 1), padding=(1, 1))
      (bn3): BatchNorm2d(64, eps=1e-05, momentum=0.1, affine=True)
      (expand3x3_activation): ReLU (inplace)
    )
    (5): Fire (
      (squeeze): Conv2d(128, 16, kernel_size=(1, 1), stride=(1, 1))
      (bn1): BatchNorm2d(16, eps=1e-05, momentum=0.1, affine=True)
      (squeeze_activation): ReLU (inplace)
      (expand1x1): Conv2d(16, 64, kernel_size=(1, 1), stride=(1, 1))
      (bn2): BatchNorm2d(64, eps=1e-05, momentum=0.1, affine=True)
      (expand1x1_activation): ReLU (inplace)
      (expand3x3): Conv2d(16, 64, kernel_size=(3, 3), stride=(1, 1), padding=(1, 1))
      (bn3): BatchNorm2d(64, eps=1e-05, momentum=0.1, affine=True)
      (expand3x3_activation): ReLU (inplace)
    )
    (6): Fire (
      (squeeze): Conv2d(128, 32, kernel_size=(1, 1), stride=(1, 1))
      (bn1): BatchNorm2d(32, eps=1e-05, momentum=0.1, affine=True)
      (squeeze_activation): ReLU (inplace)
      (expand1x1): Conv2d(32, 128, kernel_size=(1, 1), stride=(1, 1))
      (bn2): BatchNorm2d(128, eps=1e-05, momentum=0.1, affine=True)
      (expand1x1_activation): ReLU (inplace)
      (expand3x3): Conv2d(32, 128, kernel_size=(3, 3), stride=(1, 1), padding=(1, 1))
      (bn3): BatchNorm2d(128, eps=1e-05, momentum=0.1, affine=True)
      (expand3x3_activation): ReLU (inplace)
    )
    (7): MaxPool2d (size=(3, 3), stride=(2, 2), dilation=(1, 1))
    (8): Fire (
      (squeeze): Conv2d(256, 32, kernel_size=(1, 1), stride=(1, 1))
      (bn1): BatchNorm2d(32, eps=1e-05, momentum=0.1, affine=True)
      (squeeze_activation): ReLU (inplace)
      (expand1x1): Conv2d(32, 128, kernel_size=(1, 1), stride=(1, 1))
      (bn2): BatchNorm2d(128, eps=1e-05, momentum=0.1, affine=True)
      (expand1x1_activation): ReLU (inplace)
      (expand3x3): Conv2d(32, 128, kernel_size=(3, 3), stride=(1, 1), padding=(1, 1))
      (bn3): BatchNorm2d(128, eps=1e-05, momentum=0.1, affine=True)
      (expand3x3_activation): ReLU (inplace)
    )
    (9): Fire (
      (squeeze): Conv2d(256, 48, kernel_size=(1, 1), stride=(1, 1))
      (bn1): BatchNorm2d(48, eps=1e-05, momentum=0.1, affine=True)
      (squeeze_activation): ReLU (inplace)
      (expand1x1): Conv2d(48, 192, kernel_size=(1, 1), stride=(1, 1))
      (bn2): BatchNorm2d(192, eps=1e-05, momentum=0.1, affine=True)
      (expand1x1_activation): ReLU (inplace)
      (expand3x3): Conv2d(48, 192, kernel_size=(3, 3), stride=(1, 1), padding=(1, 1))
      (bn3): BatchNorm2d(192, eps=1e-05, momentum=0.1, affine=True)
      (expand3x3_activation): ReLU (inplace)
    )
    (10): Fire (
      (squeeze): Conv2d(384, 48, kernel_size=(1, 1), stride=(1, 1))
      (bn1): BatchNorm2d(48, eps=1e-05, momentum=0.1, affine=True)
      (squeeze_activation): ReLU (inplace)
      (expand1x1): Conv2d(48, 192, kernel_size=(1, 1), stride=(1, 1))
      (bn2): BatchNorm2d(192, eps=1e-05, momentum=0.1, affine=True)
      (expand1x1_activation): ReLU (inplace)
      (expand3x3): Conv2d(48, 192, kernel_size=(3, 3), stride=(1, 1), padding=(1, 1))
      (bn3): BatchNorm2d(192, eps=1e-05, momentum=0.1, affine=True)
      (expand3x3_activation): ReLU (inplace)
    )
    (11): Fire (
      (squeeze): Conv2d(384, 64, kernel_size=(1, 1), stride=(1, 1))
      (bn1): BatchNorm2d(64, eps=1e-05, momentum=0.1, affine=True)
      (squeeze_activation): ReLU (inplace)
      (expand1x1): Conv2d(64, 256, kernel_size=(1, 1), stride=(1, 1))
      (bn2): BatchNorm2d(256, eps=1e-05, momentum=0.1, affine=True)
      (expand1x1_activation): ReLU (inplace)
      (expand3x3): Conv2d(64, 256, kernel_size=(3, 3), stride=(1, 1), padding=(1, 1))
      (bn3): BatchNorm2d(256, eps=1e-05, momentum=0.1, affine=True)
      (expand3x3_activation): ReLU (inplace)
    )
    (12): MaxPool2d (size=(3, 3), stride=(2, 2), dilation=(1, 1))
    (13): Fire (
      (squeeze): Conv2d(512, 64, kernel_size=(1, 1), stride=(1, 1))
      (bn1): BatchNorm2d(64, eps=1e-05, momentum=0.1, affine=True)
      (squeeze_activation): ReLU (inplace)
      (expand1x1): Conv2d(64, 256, kernel_size=(1, 1), stride=(1, 1))
      (bn2): BatchNorm2d(256, eps=1e-05, momentum=0.1, affine=True)
      (expand1x1_activation): ReLU (inplace)
      (expand3x3): Conv2d(64, 256, kernel_size=(3, 3), stride=(1, 1), padding=(1, 1))
      (bn3): BatchNorm2d(256, eps=1e-05, momentum=0.1, affine=True)
      (expand3x3_activation): ReLU (inplace)
    )
  )
  (classifier): Sequential (
    (0): Dropout (p = 0.2)
    (1): Conv2d(512, 125, kernel_size=(1, 1), stride=(1, 1))
    (2): ReLU (inplace)
    (3): AvgPool2d (size=13, stride=13, padding=0, ceil_mode=False, count_include_pad=True)
  )
)
Starting epoch number: 1 Learning rate: 0.002
Train: [0]	Time 157.166	Data 4.142	Loss 4.113	Accuracy 0.1045	Prec@1 10.4534	Prec@5 27.8918	
Val: [0]	Time 50.867	Data 3.915	Loss 4.374	Accuracy 0.1242	Prec@1 12.4168	Prec@5 33.9941	
Best accuracy: [12.417]	
…
