…
epochs=600, evaluate=False, inpsize=225, learningratescheduler='decayschedular', logdir='../logs//tuberlin_sketchanethybridv2', lr=None, manualSeed=123, maxlr=0.002, minlr=5e-05, model_def='sketchanethybridv2', momentum=0.9, nClasses=250, name='tuberlin_sketchanethybridv2', nesterov=True, ngpus=1, optimType='adam', pretrained=False, pretrained_file='', printfreq=200, resume='', start_epoch=0, store='', tenCrop=True, tensorboard=True, testOnly=False, testbatchsize=16, verbose=False, weightDecay=0.0, weight_init=True, workers=4)
Net (
  (relu): ReLU (inplace)
  (drop): Dropout2d (p=0.2)
  (conv1): Conv2d(1, 64, kernel_size=(15, 15), stride=(3, 3))
  (bn1): BatchNorm2d(64, eps=1e-05, momentum=0.1, affine=True)
  (maxpool1): MaxPool2d (size=(3, 3), stride=(2, 2), dilation=(1, 1))
  (conv2): Conv2d(64, 128, kernel_size=(5, 5), stride=(1, 1), bias=False)
  (bn2): BatchNorm2d(64, eps=1e-05, momentum=0.1, affine=True)
  (activ2): Active (
  )
  (maxpool2): MaxPool2d (size=(3, 3), stride=(2, 2), dilation=(1, 1))
  (conv3): Conv2d(128, 256, kernel_size=(3, 3), stride=(1, 1), padding=(1, 1), bias=False)
  (bn3): BatchNorm2d(128, eps=1e-05, momentum=0.1, affine=True)
  (activ3): Active (
  )
  (conv4): Conv2d(256, 256, kernel_size=(3, 3), stride=(1, 1), padding=(1, 1), bias=False)
  (bn4): BatchNorm2d(256, eps=1e-05, momentum=0.1, affine=True)
  (activ4): Active (
  )
  (conv5): Conv2d(256, 256, kernel_size=(3, 3), stride=(1, 1), padding=(1, 1), bias=False)
  (bn5): BatchNorm2d(256, eps=1e-05, momentum=0.1, affine=True)
  (activ5): Active (
  )
  (maxpool3): MaxPool2d (size=(3, 3), stride=(2, 2), dilation=(1, 1))
  (conv6): Conv2d(256, 512, kernel_size=(7, 7), stride=(1, 1), bias=False)
  (activ6): Active (
  )
  (bn6): BatchNorm2d(256, eps=1e-05, momentum=0.1, affine=True)
  (conv7): Conv2d(512, 512, kernel_size=(1, 1), stride=(1, 1), bias=False)
  (bn7): BatchNorm2d(512, eps=1e-05, momentum=0.1, affine=True)
  (conv8): Conv2d(512, 250, kernel_size=(1, 1), stride=(1, 1))
)
Starting epoch number: 1 Learning rate: 0.002
Train: [0]	Time 20.504	Data 9.255	Loss 5.865	Accuracy 0.0115	Prec@1 1.1481	Prec@5 5.2815	
Val: [0]	Time 13.483	Data 2.258	Loss 4.842	Accuracy 0.0618	Prec@1 6.1846	Prec@5 18.8462	
Best accuracy: [6.185]	
Starting epoch number: 2 Learning rate: 0.002
Train: [1]	Time 12.910	Data 5.750	Loss 5.209	Accuracy 0.0318	Prec@1 3.1778	Prec@5 11.5185	
…
