…
et='tuberlin', decayinterval=40, decaylevel=2, epochs=400, evaluate=False, inpsize=224, learningratescheduler='decayschedular', logdir='../logs//tuberlin_squeezenethybridv2', lr=None, manualSeed=123, maxlr=0.002, minlr=5e-05, model_def='squeezenethybridv2', momentum=0.9, nClasses=250, name='tuberlin_squeezenethybridv2', nesterov=True, ngpus=1, optimType='adam', pretrained=False, pretrained_file='', printfreq=200, resume='', start_epoch=0, store='', tenCrop=True, tensorboard=True, testOnly=False, testbatchsize=4, verbose=False, weightDecay=0.0, weight_init=True, workers=4)
SqueezeNet (
  (conv1): Conv2d(1, 96, kernel_size=(7, 7), stride=(2, 2))
  (bn1): BatchNorm2d(96, eps=1e-05, momentum=0.1, affine=True)
  (relu1): ReLU (inplace)
  (maxpool1): MaxPool2d (size=(3, 3), stride=(2, 2), dilation=(1, 1))
  (conv21): Conv2d(96, 16, kernel_size=(1, 1), stride=(1, 1))
  (bn21): BatchNorm2d(16, eps=1e-05, momentum=0.1, affine=True)
  (relu21): ReLU (inplace)
  (conv22): Conv2d(16, 64, kernel_size=(1, 1), stride=(1, 1))
  (bn22): BatchNorm2d(64, eps=1e-05, momentum=0.1, affine=True)
  (relu22): ReLU (inplace)
  (conv23): Conv2d(16, 64, kernel_size=(3, 3), stride=(1, 1), padding=(1, 1))
  (bn23): BatchNorm2d(64, eps=1e-05, momentum=0.1, affine=True)
  (relu23): ReLU (inplace)
  (bn31): BatchNorm2d(128, eps=1e-05, momentum=0.1, affine=True)
  (activ31): Active (
  )
  (conv31): Conv2d(128, 16, kernel_size=(1, 1), stride=(1, 1), bias=False)
  (relu31): ReLU (inplace)
  (conv32): Conv2d(16, 64, kernel_size=(1, 1), stride=(1, 1), bias=False)
  (bn32): BatchNorm2d(64, eps=1e-05, momentum=0.1, affine=True)
  (relu32): ReLU (inplace)
  (bn33): BatchNorm2d(16, eps=1e-05, momentum=0.1, affine=True)
  (activ33): Active (
  )
  (conv33): Conv2d(16, 64, kernel_size=(3, 3), stride=(1, 1), padding=(1, 1), bias=False)
  (relu33): ReLU (inplace)
  (bn41): BatchNorm2d(128, eps=1e-05, momentum=0.1, affine=True)
  (activ41): Active (
  )
  (conv41): Conv2d(128, 32, kernel_size=(1, 1), stride=(1, 1), bias=False)
  (relu41): ReLU (inplace)
  (conv42): Conv2d(32, 128, kernel_size=(1, 1), stride=(1, 1), bias=False)
  (bn42): BatchNorm2d(128, eps=1e-05, momentum=0.1, affine=True)
  (relu42): ReLU (inplace)
  (bn43): BatchNorm2d(32, eps=1e-05, momentum=0.1, affine=True)
  (activ43): Active (
  )
  (conv43): Conv2d(32, 128, kernel_size=(3, 3), stride=(1, 1), padding=(1, 1), bias=False)
  (relu43): ReLU (inplace)
  (maxpool5): MaxPool2d (size=(3, 3), stride=(2, 2), dilation=(1, 1))
  (bn61): BatchNorm2d(256, eps=1e-05, momentum=0.1, affine=True)
  (activ61): Active (
  )
  (conv61): Conv2d(256, 32, kernel_size=(1, 1), stride=(1, 1), bias=False)
  (relu61): ReLU (inplace)
  (conv62): Conv2d(32, 128, kernel_size=(1, 1), stride=(1, 1), bias=False)
  (bn62): BatchNorm2d(128, eps=1e-05, momentum=0.1, affine=True)
  (relu62): ReLU (inplace)
  (bn63): BatchNorm2d(32, eps=1e-05, momentum=0.1, affine=True)
  (activ63): Active (
  )
  (conv63): Conv2d(32, 128, kernel_size=(3, 3), stride=(1, 1), padding=(1, 1), bias=False)
  (relu63): ReLU (inplace)
  (bn71): BatchNorm2d(256, eps=1e-05, momentum=0.1, affine=True)
  (activ71): Active (
  )
  (conv71): Conv2d(256, 48, kernel_size=(1, 1), stride=(1, 1), bias=False)
  (relu71): ReLU (inplace)
  (conv72): Conv2d(48, 192, kernel_size=(1, 1), stride=(1, 1), bias=False)
  (bn72): BatchNorm2d(192, eps=1e-05, momentum=0.1, affine=True)
  (relu72): ReLU (inplace)
  (bn73): BatchNorm2d(48, eps=1e-05, momentum=0.1, affine=True)
  (activ73): Active (
  )
  (conv73): Conv2d(48, 192, kernel_size=(3, 3), stride=(1, 1), padding=(1, 1), bias=False)
  (relu73): ReLU (inplace)
  (bn81): BatchNorm2d(384, eps=1e-05, momentum=0.1, affine=True)
  (activ81): Active (
  )
  (conv81): Conv2d(384, 48, kernel_size=(1, 1), stride=(1, 1), bias=False)
  (relu81): ReLU (inplace)
  (conv82): Conv2d(48, 192, kernel_size=(1, 1), stride=(1, 1), bias=False)
  (bn82): BatchNorm2d(192, eps=1e-05, momentum=0.1, affine=True)
  (relu82): ReLU (inplace)
  (bn83): BatchNorm2d(48, eps=1e-05, momentum=0.1, affine=True)
  (activ83): Active (
  )
  (conv83): Conv2d(48, 192, kernel_size=(3, 3), stride=(1, 1), padding=(1, 1), bias=False)
  (relu83): ReLU (inplace)
  (bn91): BatchNorm2d(384, eps=1e-05, momentum=0.1, affine=True)
  (activ91): Active (
  )
  (conv91): Conv2d(384, 64, kernel_size=(1, 1), stride=(1, 1), bias=False)
  (relu91): ReLU (inplace)
  (conv92): Conv2d(64, 256, kernel_size=(1, 1), stride=(1, 1), bias=False)
  (bn92): BatchNorm2d(256, eps=1e-05, momentum=0.1, affine=True)
  (relu92): ReLU (inplace)
  (bn93): BatchNorm2d(64, eps=1e-05, momentum=0.1, affine=True)
  (activ93): Active (
  )
  (conv93): Conv2d(64, 256, kernel_size=(3, 3), stride=(1, 1), padding=(1, 1), bias=False)
  (relu93): ReLU (inplace)
  (maxpool10): MaxPool2d (size=(3, 3), stride=(2, 2), dilation=(1, 1))
  (conv111): Conv2d(512, 64, kernel_size=(1, 1), stride=(1, 1), bias=False)
  (bn111): BatchNorm2d(64, eps=1e-05, momentum=0.1, affine=True)
  (relu111): ReLU (inplace)
  (conv112): Conv2d(64, 256, kernel_size=(1, 1), stride=(1, 1), bias=False)
  (bn112): BatchNorm2d(256, eps=1e-05, momentum=0.1, affine=True)
  (relu112): ReLU (inplace)
  (conv113): Conv2d(64, 256, kernel_size=(3, 3), stride=(1, 1), padding=(1, 1), bias=False)
  (bn113): BatchNorm2d(256, eps=1e-05, momentum=0.1, affine=True)
  (relu113): ReLU (inplace)
  (drop121): Dropout (p = 0.2)
  (conv121): Conv2d(512, 250, kernel_size=(1, 1), stride=(1, 1), bias=False)
  (relu121): ReLU (inplace)
  (avgpool121): AvgPool2d (size=13, stride=13, padding=0, ceil_mode=False, count_include_pad=True)
)
Starting epoch number: 1 Learning rate: 0.002
Train: [0]	Time 42.427	Data 6.257	Loss 5.437	Accuracy 0.0101	Prec@1 1.0074	Prec@5 4.6593	
Val: [0]	Time 47.445	Data 1.437	Loss 5.932	Accuracy 0.0092	Prec@1 0.9231	Prec@5 4.0154	
…
