…
, evaluate=False, inpsize=225, learningratescheduler='decayschedular', logdir='../logs//tuberlin_sketchanethybrid_binend8', lr=None, manualSeed=123, maxlr=0.002, minlr=5e-05, model_def='sketchanethybrid', momentum=0.9, nClasses=250, name='tuberlin_sketchanethybrid_binend8', nesterov=True, ngpus=1, optimType='adam', pretrained=False, pretrained_file='', printfreq=200, resume='', start_epoch=0, store='', tenCrop=True, tensorboard=True, testOnly=False, testbatchsize=16, verbose=False, weightDecay=0.0, weight_init=True, workers=4)
Net (
  (relu): ReLU (inplace)
  (drop): Dropout2d (p=0.2)
  (conv1): Conv2d(1, 64, kernel_size=(15, 15), stride=(3, 3))
  (bn1): BatchNorm2d(64, eps=1e-05, momentum=0.1, affine=True)
  (maxpool1): MaxPool2d (size=(3, 3), stride=(2, 2), dilation=(1, 1))
  (conv2): Conv2d(64, 128, kernel_size=(5, 5), stride=(1, 1), bias=False)
  (bn2): BatchNorm2d(64, eps=1e-05, momentum=0.1, affine=True)
  (activ2): Active (
  )
  (maxpool2): MaxPool2d (size=(3, 3), stride=(2, 2), dilation=(1, 1))
  (conv3): Conv2d(128, 256, kernel_size=(3, 3), stride=(1, 1), padding=(1, 1), bias=False)
  (bn3): BatchNorm2d(128, eps=1e-05, momentum=0.1, affine=True)
  (activ3): Active (
  )
  (conv4): Conv2d(256, 256, kernel_size=(3, 3), stride=(1, 1), padding=(1, 1), bias=False)
  (bn4): BatchNorm2d(256, eps=1e-05, momentum=0.1, affine=True)
  (activ4): Active (
  )
  (conv5): Conv2d(256, 256, kernel_size=(3, 3), stride=(1, 1), padding=(1, 1), bias=False)
  (bn5): BatchNorm2d(256, eps=1e-05, momentum=0.1, affine=True)
  (activ5): Active (
  )
  (maxpool3): MaxPool2d (size=(3, 3), stride=(2, 2), dilation=(1, 1))
  (conv6): Conv2d(256, 512, kernel_size=(7, 7), stride=(1, 1), bias=False)
  (bn6): BatchNorm2d(512, eps=1e-05, momentum=0.1, affine=True)
  (conv7): Conv2d(512, 512, kernel_size=(1, 1), stride=(1, 1), bias=False)
  (bn7): BatchNorm2d(512, eps=1e-05, momentum=0.1, affine=True)
  (conv8): Conv2d(512, 250, kernel_size=(1, 1), stride=(1, 1))
)
Starting epoch number: 1 Learning rate: 0.002
Train: [0]	Time 20.902	Data 9.696	Loss 5.607	Accuracy 0.0159	Prec@1 1.5852	Prec@5 6.3111	
Val: [0]	Time 13.892	Data 2.669	Loss 4.909	Accuracy 0.0529	Prec@1 5.2923	Prec@5 17.0462	
Best accuracy: [5.292]	
Starting epoch number: 2 Learning rate: 0.002
Train: [1]	Time 14.234	Data 7.141	Loss 5.106	Accuracy 0.0375	Prec@1 3.7481	Prec@5 12.9037	
…
