…
, decayinterval=40, decaylevel=2, epochs=400, evaluate=False, inpsize=224, learningratescheduler='decayschedular', logdir='../logs//tuberlin_squeezenetfbin', lr=None, manualSeed=123, maxlr=0.002, minlr=5e-05, model_def='squeezenetfbin', momentum=0.9, nClasses=250, name='tuberlin_squeezenetfbin', nesterov=True, ngpus=1, optimType='adam', pretrained=False, pretrained_file='', printfreq=200, resume='', start_epoch=0, store='', tenCrop=True, tensorboard=True, testOnly=False, testbatchsize=4, verbose=False, weightDecay=0.0, weight_init=True, workers=4)
SqueezeNet (
  (features): Sequential (
    (0): Conv2d(1, 96, kernel_size=(7, 7), stride=(2, 2))
    (1): BatchNorm2d(96, eps=1e-05, momentum=0.1, affine=True)
    (2): ReLU (inplace)
    (3): MaxPool2d (size=(3, 3), stride=(2, 2), dilation=(1, 1))
    (4): Fire (
      (bn1): BatchNorm2d(96, eps=1e-05, momentum=0.1, affine=True)
      (activ1): Active (
      )
      (squeeze): Conv2d(96, 16, kernel_size=(1, 1), stride=(1, 1), bias=False)
      (squeeze_activation): ReLU (inplace)
      (bn2): BatchNorm2d(16, eps=1e-05, momentum=0.1, affine=True)
      (activ2): Active (
      )
      (expand1x1): Conv2d(16, 64, kernel_size=(1, 1), stride=(1, 1), bias=False)
      (expand1x1_activation): ReLU (inplace)
      (bn3): BatchNorm2d(16, eps=1e-05, momentum=0.1, affine=True)
      (activ3): Active (
      )
      (expand3x3): Conv2d(16, 64, kernel_size=(3, 3), stride=(1, 1), padding=(1, 1), bias=False)
      (expand3x3_activation): ReLU (inplace)
    )
    (5): Fire (
      (bn1): BatchNorm2d(128, eps=1e-05, momentum=0.1, affine=True)
      (activ1): Active (
      )
      (squeeze): Conv2d(128, 16, kernel_size=(1, 1), stride=(1, 1), bias=False)
      (squeeze_activation): ReLU (inplace)
      (bn2): BatchNorm2d(16, eps=1e-05, momentum=0.1, affine=True)
      (activ2): Active (
      )
      (expand1x1): Conv2d(16, 64, kernel_size=(1, 1), stride=(1, 1), bias=False)
      (expand1x1_activation): ReLU (inplace)
      (bn3): BatchNorm2d(16, eps=1e-05, momentum=0.1, affine=True)
      (activ3): Active (
      )
      (expand3x3): Conv2d(16, 64, kernel_size=(3, 3), stride=(1, 1), padding=(1, 1), bias=False)
      (expand3x3_activation): ReLU (inplace)
    )
    (6): Fire (
      (bn1): BatchNorm2d(128, eps=1e-05, momentum=0.1, affine=True)
      (activ1): Active (
      )
      (squeeze): Conv2d(128, 32, kernel_size=(1, 1), stride=(1, 1), bias=False)
      (squeeze_activation): ReLU (inplace)
      (bn2): BatchNorm2d(32, eps=1e-05, momentum=0.1, affine=True)
      (activ2): Active (
      )
      (expand1x1): Conv2d(32, 128, kernel_size=(1, 1), stride=(1, 1), bias=False)
      (expand1x1_activation): ReLU (inplace)
      (bn3): BatchNorm2d(32, eps=1e-05, momentum=0.1, affine=True)
      (activ3): Active (
      )
      (expand3x3): Conv2d(32, 128, kernel_size=(3, 3), stride=(1, 1), padding=(1, 1), bias=False)
      (expand3x3_activation): ReLU (inplace)
    )
    (7): MaxPool2d (size=(3, 3), stride=(2, 2), dilation=(1, 1))
    (8): Fire (
      (bn1): BatchNorm2d(256, eps=1e-05, momentum=0.1, affine=True)
      (activ1): Active (
      )
      (squeeze): Conv2d(256, 32, kernel_size=(1, 1), stride=(1, 1), bias=False)
      (squeeze_activation): ReLU (inplace)
      (bn2): BatchNorm2d(32, eps=1e-05, momentum=0.1, affine=True)
      (activ2): Active (
      )
      (expand1x1): Conv2d(32, 128, kernel_size=(1, 1), stride=(1, 1), bias=False)
      (expand1x1_activation): ReLU (inplace)
      (bn3): BatchNorm2d(32, eps=1e-05, momentum=0.1, affine=True)
      (activ3): Active (
      )
      (expand3x3): Conv2d(32, 128, kernel_size=(3, 3), stride=(1, 1), padding=(1, 1), bias=False)
      (expand3x3_activation): ReLU (inplace)
    )
    (9): Fire (
      (bn1): BatchNorm2d(256, eps=1e-05, momentum=0.1, affine=True)
      (activ1): Active (
      )
      (squeeze): Conv2d(256, 48, kernel_size=(1, 1), stride=(1, 1), bias=False)
      (squeeze_activation): ReLU (inplace)
      (bn2): BatchNorm2d(48, eps=1e-05, momentum=0.1, affine=True)
      (activ2): Active (
      )
      (expand1x1): Conv2d(48, 192, kernel_size=(1, 1), stride=(1, 1), bias=False)
      (expand1x1_activation): ReLU (inplace)
      (bn3): BatchNorm2d(48, eps=1e-05, momentum=0.1, affine=True)
      (activ3): Active (
      )
      (expand3x3): Conv2d(48, 192, kernel_size=(3, 3), stride=(1, 1), padding=(1, 1), bias=False)
      (expand3x3_activation): ReLU (inplace)
    )
    (10): Fire (
      (bn1): BatchNorm2d(384, eps=1e-05, momentum=0.1, affine=True)
      (activ1): Active (
      )
      (squeeze): Conv2d(384, 48, kernel_size=(1, 1), stride=(1, 1), bias=False)
      (squeeze_activation): ReLU (inplace)
      (bn2): BatchNorm2d(48, eps=1e-05, momentum=0.1, affine=True)
      (activ2): Active (
      )
      (expand1x1): Conv2d(48, 192, kernel_size=(1, 1), stride=(1, 1), bias=False)
      (expand1x1_activation): ReLU (inplace)
      (bn3): BatchNorm2d(48, eps=1e-05, momentum=0.1, affine=True)
      (activ3): Active (
      )
      (expand3x3): Conv2d(48, 192, kernel_size=(3, 3), stride=(1, 1), padding=(1, 1), bias=False)
      (expand3x3_activation): ReLU (inplace)
    )
    (11): Fire (
      (bn1): BatchNorm2d(384, eps=1e-05, momentum=0.1, affine=True)
      (activ1): Active (
      )
      (squeeze): Conv2d(384, 64, kernel_size=(1, 1), stride=(1, 1), bias=False)
      (squeeze_activation): ReLU (inplace)
      (bn2): BatchNorm2d(64, eps=1e-05, momentum=0.1, affine=True)
      (activ2): Active (
      )
      (expand1x1): Conv2d(64, 256, kernel_size=(1, 1), stride=(1, 1), bias=False)
      (expand1x1_activation): ReLU (inplace)
      (bn3): BatchNorm2d(64, eps=1e-05, momentum=0.1, affine=True)
      (activ3): Active (
      )
      (expand3x3): Conv2d(64, 256, kernel_size=(3, 3), stride=(1, 1), padding=(1, 1), bias=False)
      (expand3x3_activation): ReLU (inplace)
    )
    (12): MaxPool2d (size=(3, 3), stride=(2, 2), dilation=(1, 1))
    (13): Fire (
      (bn1): BatchNorm2d(512, eps=1e-05, momentum=0.1, affine=True)
      (activ1): Active (
      )
      (squeeze): Conv2d(512, 64, kernel_size=(1, 1), stride=(1, 1), bias=False)
      (squeeze_activation): ReLU (inplace)
      (bn2): BatchNorm2d(64, eps=1e-05, momentum=0.1, affine=True)
      (activ2): Active (
      )
      (expand1x1): Conv2d(64, 256, kernel_size=(1, 1), stride=(1, 1), bias=False)
      (expand1x1_activation): ReLU (inplace)
      (bn3): BatchNorm2d(64, eps=1e-05, momentum=0.1, affine=True)
      (activ3): Active (
      )
      (expand3x3): Conv2d(64, 256, kernel_size=(3, 3), stride=(1, 1), padding=(1, 1), bias=False)
      (expand3x3_activation): ReLU (inplace)
    )
  )
  (classifier): Sequential (
    (0): Dropout (p = 0.2)
    (1): Conv2d(512, 250, kernel_size=(1, 1), stride=(1, 1))
    (2): ReLU (inplace)
    (3): AvgPool2d (size=13, stride=13, padding=0, ceil_mode=False, count_include_pad=True)
  )
)
Starting epoch number: 1 Learning rate: 0.002
Train: [0]	Time 39.773	Data 3.677	Loss 5.495	Accuracy 0.0075	Prec@1 0.7481	Prec@5 3.2074	
Val: [0]	Time 46.474	Data 1.002	Loss 5.466	Accuracy 0.0095	Prec@1 0.9538	Prec@5 4.0462	
Best accuracy: [0.954]	
…
