…
eduler='decayschedular', logdir='../logs//tuberlin_googlenetfbin', lr=None, manualSeed=123, maxlr=0.002, minlr=5e-05, model_def='googlenetfbin', momentum=0.9, nClasses=250, name='tuberlin_googlenetfbin', nesterov=True, ngpus=1, optimType='adam', pretrained=False, pretrained_file='', printfreq=200, reduce=1.0, resume='savedmodels/googlenetfbin_tuberlin_69.2615384615_85.pth.tar', start_epoch=0, store='', tenCrop=False, tensorboard=True, testOnly=True, testbatchsize=2, vdata=None, verbose=False, weightDecay=0.0, weight_init=True, widenfactor=4, workers=4)
Net (
  (pre_layers): Sequential (
    (0): Conv2d(1, 64, kernel_size=(7, 7), stride=(2, 2), padding=(3, 3))
    (1): BatchNorm2d(64, eps=1e-05, momentum=0.1, affine=True)
    (2): ReLU (inplace)
    (3): MaxPool2d (size=(3, 3), stride=(2, 2), padding=(1, 1), dilation=(1, 1))
    (4): BatchNorm2d(64, eps=1e-05, momentum=0.1, affine=True)
    (5): Active (
    )
    (6): Conv2d(64, 64, kernel_size=(1, 1), stride=(1, 1), bias=False)
    (7): ReLU (inplace)
    (8): BatchNorm2d(64, eps=1e-05, momentum=0.1, affine=True)
    (9): Active (
    )
    (10): Conv2d(64, 192, kernel_size=(3, 3), stride=(1, 1), padding=(1, 1), bias=False)
    (11): ReLU (inplace)
    (12): MaxPool2d (size=(3, 3), stride=(2, 2), padding=(1, 1), dilation=(1, 1))
  )
  (a3): Inception (
    (b1): Sequential (
      (0): BatchNorm2d(192, eps=1e-05, momentum=0.1, affine=True)
      (1): Active (
      )
      (2): Conv2d(192, 64, kernel_size=(1, 1), stride=(1, 1), bias=False)
      (3): ReLU (inplace)
    )
    (b2): Sequential (
      (0): BatchNorm2d(192, eps=1e-05, momentum=0.1, affine=True)
      (1): Active (
      )
      (2): Conv2d(192, 96, kernel_size=(1, 1), stride=(1, 1), bias=False)
      (3): ReLU (inplace)
      (4): BatchNorm2d(96, eps=1e-05, momentum=0.1, affine=True)
      (5): Active (
      )
      (6): Conv2d(96, 128, kernel_size=(3, 3), stride=(1, 1), padding=(1, 1), bias=False)
      (7): ReLU (inplace)
    )
    (b3): Sequential (
      (0): BatchNorm2d(192, eps=1e-05, momentum=0.1, affine=True)
      (1): Active (
      )
      (2): Conv2d(192, 16, kernel_size=(1, 1), stride=(1, 1), bias=False)
      (3): ReLU (inplace)
      (4): BatchNorm2d(16, eps=1e-05, momentum=0.1, affine=True)
      (5): Active (
      )
      (6): Conv2d(16, 32, kernel_size=(5, 5), stride=(1, 1), padding=(2, 2), bias=False)
      (7): ReLU (inplace)
    )
    (b4): Sequential (
      (0): MaxPool2d (size=(3, 3), stride=(1, 1), padding=(1, 1), dilation=(1, 1))
      (1): BatchNorm2d(192, eps=1e-05, momentum=0.1, affine=True)
      (2): Active (
      )
      (3): Conv2d(192, 32, kernel_size=(1, 1), stride=(1, 1), bias=False)
      (4): ReLU (inplace)
    )
  )
  (b3): Inception (
    (b1): Sequential (
      (0): BatchNorm2d(256, eps=1e-05, momentum=0.1, affine=True)
      (1): Active (
      )
      (2): Conv2d(256, 128, kernel_size=(1, 1), stride=(1, 1), bias=False)
      (3): ReLU (inplace)
    )
    (b2): Sequential (
      (0): BatchNorm2d(256, eps=1e-05, momentum=0.1, affine=True)
      (1): Active (
      )
      (2): Conv2d(256, 128, kernel_size=(1, 1), stride=(1, 1), bias=False)
      (3): ReLU (inplace)
      (4): BatchNorm2d(128, eps=1e-05, momentum=0.1, affine=True)
      (5): Active (
      )
      (6): Conv2d(128, 192, kernel_size=(3, 3), stride=(1, 1), padding=(1, 1), bias=False)
      (7): ReLU (inplace)
    )
    (b3): Sequential (
      (0): BatchNorm2d(256, eps=1e-05, momentum=0.1, affine=True)
      (1): Active (
      )
      (2): Conv2d(256, 32, kernel_size=(1, 1), stride=(1, 1), bias=False)
      (3): ReLU (inplace)
      (4): BatchNorm2d(32, eps=1e-05, momentum=0.1, affine=True)
      (5): Active (
      )
      (6): Conv2d(32, 96, kernel_size=(5, 5), stride=(1, 1), padding=(2, 2), bias=False)
      (7): ReLU (inplace)
    )
    (b4): Sequential (
      (0): MaxPool2d (size=(3, 3), stride=(1, 1), padding=(1, 1), dilation=(1, 1))
      (1): BatchNorm2d(256, eps=1e-05, momentum=0.1, affine=True)
      (2): Active (
      )
      (3): Conv2d(256, 64, kernel_size=(1, 1), stride=(1, 1), bias=False)
      (4): ReLU (inplace)
    )
  )
  (maxpool): MaxPool2d (size=(3, 3), stride=(2, 2), dilation=(1, 1))
  (a4): Inception (
    (b1): Sequential (
      (0): BatchNorm2d(480, eps=1e-05, momentum=0.1, affine=True)
      (1): Active (
      )
      (2): Conv2d(480, 192, kernel_size=(1, 1), stride=(1, 1), bias=False)
      (3): ReLU (inplace)
    )
    (b2): Sequential (
      (0): BatchNorm2d(480, eps=1e-05, momentum=0.1, affine=True)
      (1): Active (
      )
      (2): Conv2d(480, 96, kernel_size=(1, 1), stride=(1, 1), bias=False)
      (3): ReLU (inplace)
      (4): BatchNorm2d(96, eps=1e-05, momentum=0.1, affine=True)
      (5): Active (
      )
      (6): Conv2d(96, 204, kernel_size=(3, 3), stride=(1, 1), padding=(1, 1), bias=False)
      (7): ReLU (inplace)
    )
    (b3): Sequential (
      (0): BatchNorm2d(480, eps=1e-05, momentum=0.1, affine=True)
      (1): Active (
      )
      (2): Conv2d(480, 16, kernel_size=(1, 1), stride=(1, 1), bias=False)
      (3): ReLU (inplace)
      (4): BatchNorm2d(16, eps=1e-05, momentum=0.1, affine=True)
      (5): Active (
      )
      (6): Conv2d(16, 48, kernel_size=(5, 5), stride=(1, 1), padding=(2, 2), bias=False)
      (7): ReLU (inplace)
    )
    (b4): Sequential (
      (0): MaxPool2d (size=(3, 3), stride=(1, 1), padding=(1, 1), dilation=(1, 1))
      (1): BatchNorm2d(480, eps=1e-05, momentum=0.1, affine=True)
      (2): Active (
      )
      (3): Conv2d(480, 64, kernel_size=(1, 1), stride=(1, 1), bias=False)
      (4): ReLU (inplace)
    )
  )
  (b4): Inception (
    (b1): Sequential (
      (0): BatchNorm2d(508, eps=1e-05, momentum=0.1, affine=True)
      (1): Active (
      )
      (2): Conv2d(508, 160, kernel_size=(1, 1), stride=(1, 1), bias=False)
      (3): ReLU (inplace)
    )
    (b2): Sequential (
      (0): BatchNorm2d(508, eps=1e-05, momentum=0.1, affine=True)
      (1): Active (
      )
      (2): Conv2d(508, 112, kernel_size=(1, 1), stride=(1, 1), bias=False)
      (3): ReLU (inplace)
      (4): BatchNorm2d(112, eps=1e-05, momentum=0.1, affine=True)
      (5): Active (
      )
      (6): Conv2d(112, 224, kernel_size=(3, 3), stride=(1, 1), padding=(1, 1), bias=False)
      (7): ReLU (inplace)
    )
    (b3): Sequential (
      (0): BatchNorm2d(508, eps=1e-05, momentum=0.1, affine=True)
      (1): Active (
      )
      (2): Conv2d(508, 24, kernel_size=(1, 1), stride=(1, 1), bias=False)
      (3): ReLU (inplace)
      (4): BatchNorm2d(24, eps=1e-05, momentum=0.1, affine=True)
      (5): Active (
      )
      (6): Conv2d(24, 64, kernel_size=(5, 5), stride=(1, 1), padding=(2, 2), bias=False)
      (7): ReLU (inplace)
    )
    (b4): Sequential (
      (0): MaxPool2d (size=(3, 3), stride=(1, 1), padding=(1, 1), dilation=(1, 1))
      (1): BatchNorm2d(508, eps=1e-05, momentum=0.1, affine=True)
      (2): Active (
      )
      (3): Conv2d(508, 64, kernel_size=(1, 1), stride=(1, 1), bias=False)
      (4): ReLU (inplace)
    )
  )
  (c4): Inception (
    (b1): Sequential (
      (0): BatchNorm2d(512, eps=1e-05, momentum=0.1, affine=True)
      (1): Active (
      )
      (2): Conv2d(512, 128, kernel_size=(1, 1), stride=(1, 1), bias=False)
      (3): ReLU (inplace)
    )
    (b2): Sequential (
      (0): BatchNorm2d(512, eps=1e-05, momentum=0.1, affine=True)
      (1): Active (
      )
      (2): Conv2d(512, 128, kernel_size=(1, 1), stride=(1, 1), bias=False)
      (3): ReLU (inplace)
      (4): BatchNorm2d(128, eps=1e-05, momentum=0.1, affine=True)
      (5): Active (
      )
      (6): Conv2d(128, 256, kernel_size=(3, 3), stride=(1, 1), padding=(1, 1), bias=False)
      (7): ReLU (inplace)
    )
    (b3): Sequential (
      (0): BatchNorm2d(512, eps=1e-05, momentum=0.1, affine=True)
      (1): Active (
      )
      (2): Conv2d(512, 24, kernel_size=(1, 1), stride=(1, 1), bias=False)
      (3): ReLU (inplace)
      (4): BatchNorm2d(24, eps=1e-05, momentum=0.1, affine=True)
      (5): Active (
      )
      (6): Conv2d(24, 64, kernel_size=(5, 5), stride=(1, 1), padding=(2, 2), bias=False)
      (7): ReLU (inplace)
    )
    (b4): Sequential (
      (0): MaxPool2d (size=(3, 3), stride=(1, 1), padding=(1, 1), dilation=(1, 1))
      (1): BatchNorm2d(512, eps=1e-05, momentum=0.1, affine=True)
      (2): Active (
      )
      (3): Conv2d(512, 64, kernel_size=(1, 1), stride=(1, 1), bias=False)
      (4): ReLU (inplace)
    )
  )
  (d4): Inception (
    (b1): Sequential (
      (0): BatchNorm2d(512, eps=1e-05, momentum=0.1, affine=True)
      (1): Active (
      )
      (2): Conv2d(512, 112, kernel_size=(1, 1), stride=(1, 1), bias=False)
      (3): ReLU (inplace)
    )
    (b2): Sequential (
      (0): BatchNorm2d(512, eps=1e-05, momentum=0.1, affine=True)
      (1): Active (
      )
      (2): Conv2d(512, 144, kernel_size=(1, 1), stride=(1, 1), bias=False)
      (3): ReLU (inplace)
      (4): BatchNorm2d(144, eps=1e-05, momentum=0.1, affine=True)
      (5): Active (
      )
      (6): Conv2d(144, 288, kernel_size=(3, 3), stride=(1, 1), padding=(1, 1), bias=False)
      (7): ReLU (inplace)
    )
    (b3): Sequential (
      (0): BatchNorm2d(512, eps=1e-05, momentum=0.1, affine=True)
      (1): Active (
      )
      (2): Conv2d(512, 32, kernel_size=(1, 1), stride=(1, 1), bias=False)
      (3): ReLU (inplace)
      (4): BatchNorm2d(32, eps=1e-05, momentum=0.1, affine=True)
      (5): Active (
      )
      (6): Conv2d(32, 64, kernel_size=(5, 5), stride=(1, 1), padding=(2, 2), bias=False)
      (7): ReLU (inplace)
    )
    (b4): Sequential (
      (0): MaxPool2d (size=(3, 3), stride=(1, 1), padding=(1, 1), dilation=(1, 1))
      (1): BatchNorm2d(512, eps=1e-05, momentum=0.1, affine=True)
      (2): Active (
      )
      (3): Conv2d(512, 64, kernel_size=(1, 1), stride=(1, 1), bias=False)
      (4): ReLU (inplace)
    )
  )
  (e4): Inception (
    (b1): Sequential (
      (0): BatchNorm2d(528, eps=1e-05, momentum=0.1, affine=True)
      (1): Active (
      )
      (2): Conv2d(528, 256, kernel_size=(1, 1), stride=(1, 1), bias=False)
      (3): ReLU (inplace)
    )
    (b2): Sequential (
      (0): BatchNorm2d(528, eps=1e-05, momentum=0.1, affine=True)
      (1): Active (
      )
      (2): Conv2d(528, 160, kernel_size=(1, 1), stride=(1, 1), bias=False)
      (3): ReLU (inplace)
      (4): BatchNorm2d(160, eps=1e-05, momentum=0.1, affine=True)
      (5): Active (
      )
      (6): Conv2d(160, 320, kernel_size=(3, 3), stride=(1, 1), padding=(1, 1), bias=False)
      (7): ReLU (inplace)
    )
    (b3): Sequential (
      (0): BatchNorm2d(528, eps=1e-05, momentum=0.1, affine=True)
      (1): Active (
      )
      (2): Conv2d(528, 32, kernel_size=(1, 1), stride=(1, 1), bias=False)
      (3): ReLU (inplace)
      (4): BatchNorm2d(32, eps=1e-05, momentum=0.1, affine=True)
      (5): Active (
      )
      (6): Conv2d(32, 128, kernel_size=(5, 5), stride=(1, 1), padding=(2, 2), bias=False)
      (7): ReLU (inplace)
    )
    (b4): Sequential (
      (0): MaxPool2d (size=(3, 3), stride=(1, 1), padding=(1, 1), dilation=(1, 1))
      (1): BatchNorm2d(528, eps=1e-05, momentum=0.1, affine=True)
      (2): Active (
      )
      (3): Conv2d(528, 128, kernel_size=(1, 1), stride=(1, 1), bias=False)
      (4): ReLU (inplace)
    )
  )
  (maxpool2): MaxPool2d (size=(3, 3), stride=(2, 2), padding=(1, 1), dilation=(1, 1))
  (a5): Inception (
    (b1): Sequential (
      (0): BatchNorm2d(832, eps=1e-05, momentum=0.1, affine=True)
      (1): Active (
      )
      (2): Conv2d(832, 256, kernel_size=(1, 1), stride=(1, 1), bias=False)
      (3): ReLU (inplace)
    )
    (b2): Sequential (
      (0): BatchNorm2d(832, eps=1e-05, momentum=0.1, affine=True)
      (1): Active (
      )
      (2): Conv2d(832, 160, kernel_size=(1, 1), stride=(1, 1), bias=False)
      (3): ReLU (inplace)
      (4): BatchNorm2d(160, eps=1e-05, momentum=0.1, affine=True)
      (5): Active (
      )
      (6): Conv2d(160, 320, kernel_size=(3, 3), stride=(1, 1), padding=(1, 1), bias=False)
      (7): ReLU (inplace)
    )
    (b3): Sequential (
      (0): BatchNorm2d(832, eps=1e-05, momentum=0.1, affine=True)
      (1): Active (
      )
      (2): Conv2d(832, 48, kernel_size=(1, 1), stride=(1, 1), bias=False)
      (3): ReLU (inplace)
      (4): BatchNorm2d(48, eps=1e-05, momentum=0.1, affine=True)
      (5): Active (
      )
      (6): Conv2d(48, 128, kernel_size=(5, 5), stride=(1, 1), padding=(2, 2), bias=False)
      (7): ReLU (inplace)
    )
    (b4): Sequential (
      (0): MaxPool2d (size=(3, 3), stride=(1, 1), padding=(1, 1), dilation=(1, 1))
      (1): BatchNorm2d(832, eps=1e-05, momentum=0.1, affine=True)
      (2): Active (
      )
      (3): Conv2d(832, 128, kernel_size=(1, 1), stride=(1, 1), bias=False)
      (4): ReLU (inplace)
    )
  )
  (b5): Inception (
    (b1): Sequential (
      (0): BatchNorm2d(832, eps=1e-05, momentum=0.1, affine=True)
      (1): Active (
      )
      (2): Conv2d(832, 384, kernel_size=(1, 1), stride=(1, 1), bias=False)
      (3): ReLU (inplace)
    )
    (b2): Sequential (
      (0): BatchNorm2d(832, eps=1e-05, momentum=0.1, affine=True)
      (1): Active (
      )
      (2): Conv2d(832, 192, kernel_size=(1, 1), stride=(1, 1), bias=False)
      (3): ReLU (inplace)
      (4): BatchNorm2d(192, eps=1e-05, momentum=0.1, affine=True)
      (5): Active (
      )
      (6): Conv2d(192, 384, kernel_size=(3, 3), stride=(1, 1), padding=(1, 1), bias=False)
      (7): ReLU (inplace)
    )
    (b3): Sequential (
      (0): BatchNorm2d(832, eps=1e-05, momentum=0.1, affine=True)
      (1): Active (
      )
      (2): Conv2d(832, 48, kernel_size=(1, 1), stride=(1, 1), bias=False)
      (3): ReLU (inplace)
      (4): BatchNorm2d(48, eps=1e-05, momentum=0.1, affine=True)
      (5): Active (
      )
      (6): Conv2d(48, 128, kernel_size=(5, 5), stride=(1, 1), padding=(2, 2), bias=False)
      (7): ReLU (inplace)
    )
    (b4): Sequential (
      (0): MaxPool2d (size=(3, 3), stride=(1, 1), padding=(1, 1), dilation=(1, 1))
      (1): BatchNorm2d(832, eps=1e-05, momentum=0.1, affine=True)
      (2): Active (
      )
      (3): Conv2d(832, 128, kernel_size=(1, 1), stride=(1, 1), bias=False)
      (4): ReLU (inplace)
    )
  )
  (avgpool): AvgPool2d (
  )
  (drop): Dropout (p = 0.4)
  (linear): Linear (1024 -> 250)
)
=> loading checkpoint 'savedmodels/googlenetfbin_tuberlin_69.2615384615_85.pth.tar'
=> loaded checkpoint 'savedmodels/googlenetfbin_tuberlin_69.2615384615_85.pth.tar' (epoch 86)
('Starting epoch number:', 87, 'Learning rate:', 0.00025)
…
