…
alse, inpsize=225, learningratescheduler='decayschedular', logdir='../logs//sketchy_sketchanetfbin_8thwbin', lr=None, manualSeed=123, maxlr=0.002, minlr=5e-05, model_def='sketchanetfbin', momentum=0.9, nClasses=125, name='sketchy_sketchanetfbin_8thwbin', nesterov=True, ngpus=1, numiter=100000000, optimType='adam', pretrained=False, pretrained_file='', printfreq=200, resume='', start_epoch=0, store='', tenCrop=False, tensorboard=True, testOnly=False, testbatchsize=16, verbose=False, weightDecay=0.0, weight_init=True, workers=4)
Net (
  (relu): ReLU (inplace)
  (drop): Dropout2d (p=0.2)
  (conv1): Conv2d(1, 64, kernel_size=(15, 15), stride=(3, 3))
  (bn1): BatchNorm2d(64, eps=1e-05, momentum=0.1, affine=True)
  (maxpool1): MaxPool2d (size=(3, 3), stride=(2, 2), dilation=(1, 1))
  (conv2): Conv2d(64, 128, kernel_size=(5, 5), stride=(1, 1), bias=False)
  (bn2): BatchNorm2d(64, eps=1e-05, momentum=0.1, affine=True)
  (activ2): Active (
  )
  (maxpool2): MaxPool2d (size=(3, 3), stride=(2, 2), dilation=(1, 1))
  (conv3): Conv2d(128, 256, kernel_size=(3, 3), stride=(1, 1), padding=(1, 1), bias=False)
  (bn3): BatchNorm2d(128, eps=1e-05, momentum=0.1, affine=True)
  (activ3): Active (
  )
  (conv4): Conv2d(256, 256, kernel_size=(3, 3), stride=(1, 1), padding=(1, 1), bias=False)
  (bn4): BatchNorm2d(256, eps=1e-05, momentum=0.1, affine=True)
  (activ4): Active (
  )
  (conv5): Conv2d(256, 256, kernel_size=(3, 3), stride=(1, 1), padding=(1, 1), bias=False)
  (bn5): BatchNorm2d(256, eps=1e-05, momentum=0.1, affine=True)
  (activ5): Active (
  )
  (maxpool3): MaxPool2d (size=(3, 3), stride=(2, 2), dilation=(1, 1))
  (conv6): Conv2d(256, 512, kernel_size=(7, 7), stride=(1, 1), bias=False)
  (bn6): BatchNorm2d(256, eps=1e-05, momentum=0.1, affine=True)
  (activ6): Active (
  )
  (conv7): Conv2d(512, 512, kernel_size=(1, 1), stride=(1, 1), bias=False)
  (bn7): BatchNorm2d(512, eps=1e-05, momentum=0.1, affine=True)
  (activ7): Active (
  )
  (conv8): Conv2d(512, 125, kernel_size=(1, 1), stride=(1, 1))
)
('Starting epoch number:', 1, 'Learning rate:', 0.002)
Train: [0]	Time 90.499	Data 26.747	Loss 5.025	Accuracy 0.0197	Prec@1 1.9732	Prec@5 8.1674	
Val: [0]	Time 3.652	Data 0.316	Loss 4.379	Accuracy 0.0510	Prec@1 5.0970	Prec@5 18.8730	
Best accuracy: [5.097]	
('Starting epoch number:', 2, 'Learning rate:', 0.002)
Train: [1]	Time 87.984	Data 27.443	Loss 4.511	Accuracy 0.0404	Prec@1 4.0399	Prec@5 14.9873	
…
