…
luate=False, inpsize=225, learningratescheduler='decayschedular', logdir='../logs//sketchy_sketchanetwbin_8thwbin', lr=None, manualSeed=123, maxlr=0.002, minlr=5e-05, model_def='sketchanetwbin', momentum=0.9, nClasses=125, name='sketchy_sketchanetwbin_8thwbin', nesterov=True, ngpus=1, numiter=100000000, optimType='adam', pretrained=False, pretrained_file='', printfreq=200, resume='', start_epoch=0, store='', tenCrop=False, tensorboard=True, testOnly=False, testbatchsize=16, verbose=False, weightDecay=0.0, weight_init=True, workers=4)
Net (
  (relu): ReLU ()
  (drop): Dropout2d (p=0.1)
  (conv1): Conv2d(1, 64, kernel_size=(15, 15), stride=(3, 3))
  (bn1): BatchNorm2d(64, eps=1e-05, momentum=0.1, affine=True)
  (maxpool1): MaxPool2d (size=(3, 3), stride=(2, 2), dilation=(1, 1))
  (conv2): Conv2d(64, 128, kernel_size=(5, 5), stride=(1, 1), bias=False)
  (bn2): BatchNorm2d(128, eps=1e-05, momentum=0.1, affine=True)
  (maxpool2): MaxPool2d (size=(3, 3), stride=(2, 2), dilation=(1, 1))
  (conv3): Conv2d(128, 256, kernel_size=(3, 3), stride=(1, 1), padding=(1, 1), bias=False)
  (bn3): BatchNorm2d(256, eps=1e-05, momentum=0.1, affine=True)
  (conv4): Conv2d(256, 256, kernel_size=(3, 3), stride=(1, 1), padding=(1, 1), bias=False)
  (bn4): BatchNorm2d(256, eps=1e-05, momentum=0.1, affine=True)
  (conv5): Conv2d(256, 256, kernel_size=(3, 3), stride=(1, 1), padding=(1, 1), bias=False)
  (bn5): BatchNorm2d(256, eps=1e-05, momentum=0.1, affine=True)
  (maxpool3): MaxPool2d (size=(3, 3), stride=(2, 2), dilation=(1, 1))
  (conv6): Conv2d(256, 512, kernel_size=(7, 7), stride=(1, 1), bias=False)
  (bn6): BatchNorm2d(512, eps=1e-05, momentum=0.1, affine=True)
  (conv7): Conv2d(512, 512, kernel_size=(1, 1), stride=(1, 1), bias=False)
  (bn7): BatchNorm2d(512, eps=1e-05, momentum=0.1, affine=True)
  (conv8): Conv2d(512, 125, kernel_size=(1, 1), stride=(1, 1))
)
('Starting epoch number:', 1, 'Learning rate:', 0.002)
Train: [0]	Time 86.584	Data 26.008	Loss 4.258	Accuracy 0.0919	Prec@1 9.1906	Prec@5 26.2709	
Val: [0]	Time 3.444	Data 0.277	Loss 4.548	Accuracy 0.1361	Prec@1 13.6061	Prec@5 34.6737	
Best accuracy: [13.606]	
('Starting epoch number:', 2, 'Learning rate:', 0.002)
Train: [1]	Time 88.829	Data 31.711	Loss 3.386	Accuracy 0.2111	Prec@1 21.1070	Prec@5 46.0317	
…
