…
rowth=12, inpsize=224, layers=40, learningratescheduler='decayschedular', logdir='../logs//tuberlin_squeezenetfbin', lr=None, manualSeed=123, maxlr=0.0005, minlr=1e-05, model_def='squeezenetfbin', momentum=0.9, nClasses=250, name='tuberlin_squeezenetfbin', nesterov=True, ngpus=1, optimType='adam', pretrained=False, pretrained_file='', printfreq=200, reduce=1.0, resume='', start_epoch=0, store='', tenCrop=False, tensorboard=True, testOnly=False, testbatchsize=2, vdata=None, verbose=False, weightDecay=0.0, weight_init=True, widenfactor=4, workers=4)
SqueezeNet (
  (features): Sequential (
    (0): Conv2d(1, 96, kernel_size=(7, 7), stride=(2, 2))
    (1): BatchNorm2d(96, eps=1e-05, momentum=0.1, affine=True)
    (2): ReLU (inplace)
    (3): MaxPool2d (size=(3, 3), stride=(2, 2), dilation=(1, 1))
    (4): Fire (
      (bn1): BatchNorm2d(96, eps=1e-05, momentum=0.1, affine=True)
      (activ1): Active (
      )
      (squeeze): Conv2d(96, 16, kernel_size=(1, 1), stride=(1, 1), bias=False)
      (squeeze_activation): ReLU (inplace)
      (bn2): BatchNorm2d(16, eps=1e-05, momentum=0.1, affine=True)
      (activ2): Active (
      )
      (expand1x1): Conv2d(16, 64, kernel_size=(1, 1), stride=(1, 1), bias=False)
      (expand1x1_activation): ReLU (inplace)
      (bn3): BatchNorm2d(16, eps=1e-05, momentum=0.1, affine=True)
      (activ3): Active (
      )
      (expand3x3): Conv2d(16, 64, kernel_size=(3, 3), stride=(1, 1), padding=(1, 1), bias=False)
      (expand3x3_activation): ReLU (inplace)
    )
    (5): Fire (
      (bn1): BatchNorm2d(128, eps=1e-05, momentum=0.1, affine=True)
      (activ1): Active (
      )
      (squeeze): Conv2d(128, 16, kernel_size=(1, 1), stride=(1, 1), bias=False)
      (squeeze_activation): ReLU (inplace)
      (bn2): BatchNorm2d(16, eps=1e-05, momentum=0.1, affine=True)
      (activ2): Active (
      )
      (expand1x1): Conv2d(16, 64, kernel_size=(1, 1), stride=(1, 1), bias=False)
      (expand1x1_activation): ReLU (inplace)
      (bn3): BatchNorm2d(16, eps=1e-05, momentum=0.1, affine=True)
      (activ3): Active (
      )
      (expand3x3): Conv2d(16, 64, kernel_size=(3, 3), stride=(1, 1), padding=(1, 1), bias=False)
      (expand3x3_activation): ReLU (inplace)
    )
    (6): Fire (
      (bn1): BatchNorm2d(128, eps=1e-05, momentum=0.1, affine=True)
      (activ1): Active (
      )
      (squeeze): Conv2d(128, 32, kernel_size=(1, 1), stride=(1, 1), bias=False)
      (squeeze_activation): ReLU (inplace)
      (bn2): BatchNorm2d(32, eps=1e-05, momentum=0.1, affine=True)
      (activ2): Active (
      )
      (expand1x1): Conv2d(32, 128, kernel_size=(1, 1), stride=(1, 1), bias=False)
      (expand1x1_activation): ReLU (inplace)
      (bn3): BatchNorm2d(32, eps=1e-05, momentum=0.1, affine=True)
      (activ3): Active (
      )
      (expand3x3): Conv2d(32, 128, kernel_size=(3, 3), stride=(1, 1), padding=(1, 1), bias=False)
      (expand3x3_activation): ReLU (inplace)
    )
    (7): MaxPool2d (size=(3, 3), stride=(2, 2), dilation=(1, 1))
    (8): Fire (
      (bn1): BatchNorm2d(256, eps=1e-05, momentum=0.1, affine=True)
      (activ1): Active (
      )
      (squeeze): Conv2d(256, 32, kernel_size=(1, 1), stride=(1, 1), bias=False)
      (squeeze_activation): ReLU (inplace)
      (bn2): BatchNorm2d(32, eps=1e-05, momentum=0.1, affine=True)
      (activ2): Active (
      )
      (expand1x1): Conv2d(32, 128, kernel_size=(1, 1), stride=(1, 1), bias=False)
      (expand1x1_activation): ReLU (inplace)
      (bn3): BatchNorm2d(32, eps=1e-05, momentum=0.1, affine=True)
      (activ3): Active (
      )
      (expand3x3): Conv2d(32, 128, kernel_size=(3, 3), stride=(1, 1), padding=(1, 1), bias=False)
      (expand3x3_activation): ReLU (inplace)
    )
    (9): Fire (
      (bn1): BatchNorm2d(256, eps=1e-05, momentum=0.1, affine=True)
      (activ1): Active (
      )
      (squeeze): Conv2d(256, 48, kernel_size=(1, 1), stride=(1, 1), bias=False)
      (squeeze_activation): ReLU (inplace)
      (bn2): BatchNorm2d(48, eps=1e-05, momentum=0.1, affine=True)
      (activ2): Active (
      )
      (expand1x1): Conv2d(48, 192, kernel_size=(1, 1), stride=(1, 1), bias=False)
      (expand1x1_activation): ReLU (inplace)
      (bn3): BatchNorm2d(48, eps=1e-05, momentum=0.1, affine=True)
      (activ3): Active (
      )
      (expand3x3): Conv2d(48, 192, kernel_size=(3, 3), stride=(1, 1), padding=(1, 1), bias=False)
      (expand3x3_activation): ReLU (inplace)
    )
    (10): Fire (
      (bn1): BatchNorm2d(384, eps=1e-05, momentum=0.1, affine=True)
      (activ1): Active (
      )
      (squeeze): Conv2d(384, 48, kernel_size=(1, 1), stride=(1, 1), bias=False)
      (squeeze_activation): ReLU (inplace)
      (bn2): BatchNorm2d(48, eps=1e-05, momentum=0.1, affine=True)
      (activ2): Active (
      )
      (expand1x1): Conv2d(48, 192, kernel_size=(1, 1), stride=(1, 1), bias=False)
      (expand1x1_activation): ReLU (inplace)
      (bn3): BatchNorm2d(48, eps=1e-05, momentum=0.1, affine=True)
      (activ3): Active (
      )
      (expand3x3): Conv2d(48, 192, kernel_size=(3, 3), stride=(1, 1), padding=(1, 1), bias=False)
      (expand3x3_activation): ReLU (inplace)
    )
    (11): Fire (
      (bn1): BatchNorm2d(384, eps=1e-05, momentum=0.1, affine=True)
      (activ1): Active (
      )
      (squeeze): Conv2d(384, 64, kernel_size=(1, 1), stride=(1, 1), bias=False)
      (squeeze_activation): ReLU (inplace)
      (bn2): BatchNorm2d(64, eps=1e-05, momentum=0.1, affine=True)
      (activ2): Active (
      )
      (expand1x1): Conv2d(64, 256, kernel_size=(1, 1), stride=(1, 1), bias=False)
      (expand1x1_activation): ReLU (inplace)
      (bn3): BatchNorm2d(64, eps=1e-05, momentum=0.1, affine=True)
      (activ3): Active (
      )
      (expand3x3): Conv2d(64, 256, kernel_size=(3, 3), stride=(1, 1), padding=(1, 1), bias=False)
      (expand3x3_activation): ReLU (inplace)
    )
    (12): MaxPool2d (size=(3, 3), stride=(2, 2), dilation=(1, 1))
    (13): Fire (
      (bn1): BatchNorm2d(512, eps=1e-05, momentum=0.1, affine=True)
      (activ1): Active (
      )
      (squeeze): Conv2d(512, 64, kernel_size=(1, 1), stride=(1, 1), bias=False)
      (squeeze_activation): ReLU (inplace)
      (bn2): BatchNorm2d(64, eps=1e-05, momentum=0.1, affine=True)
      (activ2): Active (
      )
      (expand1x1): Conv2d(64, 256, kernel_size=(1, 1), stride=(1, 1), bias=False)
      (expand1x1_activation): ReLU (inplace)
      (bn3): BatchNorm2d(64, eps=1e-05, momentum=0.1, affine=True)
      (activ3): Active (
      )
      (expand3x3): Conv2d(64, 256, kernel_size=(3, 3), stride=(1, 1), padding=(1, 1), bias=False)
      (expand3x3_activation): ReLU (inplace)
    )
  )
  (classifier): Sequential (
    (0): Dropout (p = 0.2)
    (1): Conv2d(512, 250, kernel_size=(1, 1), stride=(1, 1))
    (2): ReLU (inplace)
    (3): AvgPool2d (
    )
  )
)
('Starting epoch number:', 1, 'Learning rate:', 0.0005)
Train: [0]	Time 62.908	Data 6.667	Loss 5.514	Accuracy 0.0064	Prec@1 0.6370	Prec@5 2.9259	
Val: [0]	Time 24.057	Data 0.612	Loss 5.511	Accuracy 0.0062	Prec@1 0.6154	Prec@5 2.8615	
Best accuracy: [0.615]	
('Starting epoch number:', 2, 'Learning rate:', 0.0005)
…
