…
learningratescheduler='decayschedular', logdir='../logs//tuberlin_sketchanethybrid_prelu', lr=None, manualSeed=123, maxlr=0.002, minlr=0.0001, model_def='sketchanethybrid', momentum=0.9, nClasses=250, name='tuberlin_sketchanethybrid_prelu', nesterov=True, ngpus=1, optimType='adam', pretrained=False, pretrained_file='', printfreq=200, reduce=1.0, resume='', start_epoch=0, store='', tenCrop=False, tensorboard=True, testOnly=False, testbatchsize=2, vdata=None, verbose=False, weightDecay=0.0, weight_init=True, widenfactor=4, workers=4)
Net (
  (relu): PReLU (1)
  (drop): Dropout2d (p=0.2)
  (conv1): Conv2d(1, 64, kernel_size=(15, 15), stride=(3, 3))
  (bn1): BatchNorm2d(64, eps=1e-05, momentum=0.1, affine=True)
  (maxpool1): MaxPool2d (size=(3, 3), stride=(2, 2), dilation=(1, 1))
  (conv2): Conv2d(64, 128, kernel_size=(5, 5), stride=(1, 1), bias=False)
  (bn2): BatchNorm2d(64, eps=1e-05, momentum=0.1, affine=True)
  (activ2): Active (
  )
  (maxpool2): MaxPool2d (size=(3, 3), stride=(2, 2), dilation=(1, 1))
  (conv3): Conv2d(128, 256, kernel_size=(3, 3), stride=(1, 1), padding=(1, 1), bias=False)
  (bn3): BatchNorm2d(128, eps=1e-05, momentum=0.1, affine=True)
  (activ3): Active (
  )
  (conv4): Conv2d(256, 256, kernel_size=(3, 3), stride=(1, 1), padding=(1, 1), bias=False)
  (bn4): BatchNorm2d(256, eps=1e-05, momentum=0.1, affine=True)
  (activ4): Active (
  )
  (conv5): Conv2d(256, 256, kernel_size=(3, 3), stride=(1, 1), padding=(1, 1), bias=False)
  (bn5): BatchNorm2d(256, eps=1e-05, momentum=0.1, affine=True)
  (activ5): Active (
  )
  (maxpool3): MaxPool2d (size=(3, 3), stride=(2, 2), dilation=(1, 1))
  (conv6): Conv2d(256, 512, kernel_size=(7, 7), stride=(1, 1), bias=False)
  (bn6): BatchNorm2d(512, eps=1e-05, momentum=0.1, affine=True)
  (conv7): Conv2d(512, 512, kernel_size=(1, 1), stride=(1, 1), bias=False)
  (bn7): BatchNorm2d(512, eps=1e-05, momentum=0.1, affine=True)
  (conv8): Conv2d(512, 250, kernel_size=(1, 1), stride=(1, 1))
)
('Starting epoch number:', 1, 'Learning rate:', 0.002)
Train: [0]	Time 19.380	Data 1.931	Loss 5.786	Accuracy 0.0164	Prec@1 1.6370	Prec@5 6.5037	
Val: [0]	Time 11.317	Data 0.787	Loss 4.645	Accuracy 0.0657	Prec@1 6.5692	Prec@5 20.6769	
Best accuracy: [6.569]	
('Starting epoch number:', 2, 'Learning rate:', 0.002)
Train: [1]	Time 15.990	Data 2.812	Loss 5.131	Accuracy 0.0376	Prec@1 3.7630	Prec@5 13.3630	
…
