…
225, learningratescheduler='decayschedular', logdir='../logs//tuberlin_sketchanethybridv2_8thwbin', lr=None, manualSeed=123, maxlr=0.002, minlr=5e-05, model_def='sketchanethybridv2', momentum=0.9, nClasses=250, name='tuberlin_sketchanethybridv2_8thwbin', nesterov=True, ngpus=1, numiter=100000000, optimType='adam', pretrained=False, pretrained_file='', printfreq=200, resume='', start_epoch=0, store='', tenCrop=False, tensorboard=True, testOnly=False, testbatchsize=16, verbose=False, weightDecay=0.0, weight_init=True, workers=4)
Net (
  (relu): ReLU (inplace)
  (drop): Dropout2d (p=0.2)
  (conv1): Conv2d(1, 64, kernel_size=(15, 15), stride=(3, 3))
  (bn1): BatchNorm2d(64, eps=1e-05, momentum=0.1, affine=True)
  (maxpool1): MaxPool2d (size=(3, 3), stride=(2, 2), dilation=(1, 1))
  (conv2): Conv2d(64, 128, kernel_size=(5, 5), stride=(1, 1), bias=False)
  (bn2): BatchNorm2d(64, eps=1e-05, momentum=0.1, affine=True)
  (activ2): Active (
  )
  (maxpool2): MaxPool2d (size=(3, 3), stride=(2, 2), dilation=(1, 1))
  (conv3): Conv2d(128, 256, kernel_size=(3, 3), stride=(1, 1), padding=(1, 1), bias=False)
  (bn3): BatchNorm2d(128, eps=1e-05, momentum=0.1, affine=True)
  (activ3): Active (
  )
  (conv4): Conv2d(256, 256, kernel_size=(3, 3), stride=(1, 1), padding=(1, 1), bias=False)
  (bn4): BatchNorm2d(256, eps=1e-05, momentum=0.1, affine=True)
  (activ4): Active (
  )
  (conv5): Conv2d(256, 256, kernel_size=(3, 3), stride=(1, 1), padding=(1, 1), bias=False)
  (bn5): BatchNorm2d(256, eps=1e-05, momentum=0.1, affine=True)
  (activ5): Active (
  )
  (maxpool3): MaxPool2d (size=(3, 3), stride=(2, 2), dilation=(1, 1))
  (conv6): Conv2d(256, 512, kernel_size=(7, 7), stride=(1, 1), bias=False)
  (activ6): Active (
  )
  (bn6): BatchNorm2d(256, eps=1e-05, momentum=0.1, affine=True)
  (conv7): Conv2d(512, 512, kernel_size=(1, 1), stride=(1, 1), bias=False)
  (bn7): BatchNorm2d(512, eps=1e-05, momentum=0.1, affine=True)
  (conv8): Conv2d(512, 250, kernel_size=(1, 1), stride=(1, 1))
)
('Starting epoch number:', 1, 'Learning rate:', 0.002)
Train: [0]	Time 19.160	Data 3.037	Loss 5.618	Accuracy 0.0156	Prec@1 1.5630	Prec@5 6.6222	
Val: [0]	Time 3.467	Data 0.255	Loss 4.839	Accuracy 0.0572	Prec@1 5.7231	Prec@5 16.7692	
Best accuracy: [5.723]	
('Starting epoch number:', 2, 'Learning rate:', 0.002)
Train: [1]	Time 15.853	Data 4.025	Loss 5.119	Accuracy 0.0376	Prec@1 3.7630	Prec@5 12.6222	
…
